…
  File "D:\Programs\anaconda3\envs\pytorch_env\lib\site-packages\IPython\extensions\autoreload.py", line 393, in update_generic
    update(a, b)
  File "D:\Programs\anaconda3\envs\pytorch_env\lib\site-packages\IPython\extensions\autoreload.py", line 345, in update_class
    if update_generic(old_obj, new_obj):
RecursionError: maximum recursion depth exceeded while calling a Python object
]
[4mReloaded modules[24m: rev, fast_rev, utils, revmvit, revswin, rev_mod
cuda
==> Preparing data..
Files already downloaded and verified
Files already downloaded and verified
RevViT_Momentum(
  (layers): ModuleList(
    (0-3): 4 x ReversibleBlock(
      (F): AttentionSubBlock(
        (norm): LayerNorm((256,), eps=1e-06, elementwise_affine=True)
        (attn): MultiheadAttention(
          (out_proj): NonDynamicallyQuantizableLinear(in_features=256, out_features=256, bias=True)
        )
      )
      (G): MLPSubblock(
        (norm): LayerNorm((256,), eps=1e-05, elementwise_affine=True)
        (mlp): Sequential(
          (0): Linear(in_features=256, out_features=1024, bias=True)
          (1): GELU(approximate='none')
          (2): Linear(in_features=1024, out_features=256, bias=True)
        )
      )
    )
  )
  (patch_embed): Conv2d(3, 256, kernel_size=(4, 4), stride=(4, 4))
  (head): Linear(in_features=512, out_features=10, bias=True)
  (norm): LayerNorm((512,), eps=1e-05, elementwise_affine=True)
)
Training Epoch: 0
Epoch 0:   0%|          | 0/391 [00:00<?, ?it/s]
[4mReloaded modules[24m: rev, fast_rev, utils, revmvit, revswin, rev_mod
cuda
==> Preparing data..
Files already downloaded and verified
Files already downloaded and verified
[autoreload of rev_mod failed: Traceback (most recent call last):
  File "D:\Programs\anaconda3\envs\pytorch_env\lib\site-packages\IPython\extensions\autoreload.py", line 273, in check
…
  File "D:\Programs\anaconda3\envs\pytorch_env\lib\site-packages\IPython\extensions\autoreload.py", line 345, in update_class
    if update_generic(old_obj, new_obj):
  File "D:\Programs\anaconda3\envs\pytorch_env\lib\site-packages\IPython\extensions\autoreload.py", line 393, in update_generic
    update(a, b)
  File "D:\Programs\anaconda3\envs\pytorch_env\lib\site-packages\IPython\extensions\autoreload.py", line 345, in update_class
    if update_generic(old_obj, new_obj):
RecursionError: maximum recursion depth exceeded while calling a Python object
]
Files already downloaded and verified
RevViT_Momentum(
  (layers): ModuleList(
    (0-3): 4 x ReversibleBlock(
      (F): AttentionSubBlock(
        (norm): LayerNorm((256,), eps=1e-06, elementwise_affine=True)
        (attn): MultiheadAttention(
          (out_proj): NonDynamicallyQuantizableLinear(in_features=256, out_features=256, bias=True)
        )
      )
      (G): MLPSubblock(
        (norm): LayerNorm((256,), eps=1e-05, elementwise_affine=True)
        (mlp): Sequential(
          (0): Linear(in_features=256, out_features=1024, bias=True)
          (1): GELU(approximate='none')
          (2): Linear(in_features=1024, out_features=256, bias=True)
        )
      )
    )
  )
  (patch_embed): Conv2d(3, 256, kernel_size=(4, 4), stride=(4, 4))
  (head): Linear(in_features=512, out_features=10, bias=True)
  (norm): LayerNorm((512,), eps=1e-05, elementwise_affine=True)
)
Training Epoch: 0



















Epoch 0: 100%|█████████▉| 390/391 [00:39<00:00,  9.82it/s, Loss=1.94, Accuracy=27.7]
[4mReloaded modules[24m: rev, fast_rev, utils, revmvit, revswin, rev_mod
cuda
==> Preparing data..
Files already downloaded and verified
Files already downloaded and verified
RevViT_Momentum(
  (layers): ModuleList(
    (0-3): 4 x ReversibleBlock(
      (F): AttentionSubBlock(
        (norm): LayerNorm((256,), eps=1e-06, elementwise_affine=True)
        (attn): MultiheadAttention(
          (out_proj): NonDynamicallyQuantizableLinear(in_features=256, out_features=256, bias=True)
        )
      )
      (G): MLPSubblock(
        (norm): LayerNorm((256,), eps=1e-05, elementwise_affine=True)
        (mlp): Sequential(
          (0): Linear(in_features=256, out_features=1024, bias=True)
          (1): GELU(approximate='none')
          (2): Linear(in_features=1024, out_features=256, bias=True)
        )
      )
    )
  )
  (patch_embed): Conv2d(3, 256, kernel_size=(4, 4), stride=(4, 4))
  (head): Linear(in_features=512, out_features=10, bias=True)
  (norm): LayerNorm((512,), eps=1e-05, elementwise_affine=True)
)
Training Epoch: 0
[autoreload of rev_mod failed: Traceback (most recent call last):
  File "D:\Programs\anaconda3\envs\pytorch_env\lib\site-packages\IPython\extensions\autoreload.py", line 273, in check
    superreload(m, reload, self.old_objects)
  File "D:\Programs\anaconda3\envs\pytorch_env\lib\site-packages\IPython\extensions\autoreload.py", line 496, in superreload
…
